…
-26T19:55:54.15303Z","shell.execute_reply":"2024-08-26T19:55:54.152077Z"},"jupyter":{"outputs_hidden":false},"papermill":{"duration":0.393354,"end_time":"2024-08-26T19:55:54.164467","exception":false,"start_time":"2024-08-26T19:55:53.771113","status":"completed"},"tags":[]},"outputs":[{"name":"stdout","output_type":"stream","text":["Model: \"sequential\"\n","_________________________________________________________________\n"," Layer (type)                Output Shape              Param #   \n","=================================================================\n"," conv2d (Conv2D)             (None, 997, 63, 16)       160       \n","                                                                 \n"," conv2d_1 (Conv2D)           (None, 995, 61, 16)       2320      \n","                                                                 \n"," flatten (Flatten)           (None, 971120)            0         \n","                                                                 \n"," dense (Dense)               (None, 128)               124303488 \n","                                                                 \n"," dense_1 (Dense)             (None, 1)                 129       \n","                                                                 \n","=================================================================\n","Total params: 124306097 (474.19 MB)\n","Trainable params: 124306097 (474.19 MB)\n","Non-trainable params: 0 (0.00 Byte)\n","_________________________________________________________________\n"]}],"source":["optimizer = Adam(learning_rate=lr_schedul
…
T20:05:01.740197Z","shell.execute_reply":"2024-08-26T20:05:01.739271Z"},"jupyter":{"outputs_hidden":false},"papermill":{"duration":0.714609,"end_time":"2024-08-26T20:05:01.755146","exception":false,"start_time":"2024-08-26T20:05:01.040537","status":"completed"},"tags":[]},"outputs":[{"name":"stdout","output_type":"stream","text":["Model: \"sequential_2\"\n","_________________________________________________________________\n"," Layer (type)                Output Shape              Param #   \n","=================================================================\n"," conv2d_2 (Conv2D)           (None, 997, 63, 64)       640       \n","                                                                 \n"," batch_normalization (Batch  (None, 997, 63, 64)       256       \n"," Normalization)                                                  \n","                                                                 \n"," max_pooling2d (MaxPooling2  (None, 498, 31, 64)       0         \n"," D)                                                              \n","                                                                 \n"," dropout (Dropout)           (None, 498, 31, 64)       0         \n","                                                                 \n"," conv2d_3 (Conv2D)           (None, 496, 29, 32)       18464     \n","                                                                 \n"," batch_normalization_1 (Bat  (None, 496, 29, 32)       128       \n"," chNormalization)                                                \n","                                                                 \n"," max_pooling2d_1 (MaxPoolin  (None, 248, 14, 32)       0         \n"," g2D)                                                            \n","                                                                 \n"," dropout_1 (Dropout)         (None, 248, 14, 32)       0         \n","                                                                 \n"," flatten_2 (Flatten)         (None, 111104)            0         \n","                                                                 \n"," dense_5 (Dense)             (None, 64)                7110720   \n","                                                                 \n"," dropout_2 (Dropout)         (None, 64)                0         \n","                                                                 \n"," dense_6 (Dense)             (None, 32)                2080      \n","                                                                 \n"," dropout_3 (Dropout)         (None, 32)                0         \n","                                                                 \n"," dense_7 (Dense)             (None, 16)                528       \n","                                                                 \n"," dropout_4 (Dropout)         (None, 16)                0         \n","                                                                 \n"," dense_8 (Dense)             (None, 1)                 17        \n","                                                                 \n","=================================================================\n","Total params: 7132833 (27.21 MB)\n","Trainable params: 7132641 (27.21 MB)\n","Non-trainable params: 192 (768.00 Byte)\n","_________________________________________________________________\n"]}],"source":["optimizer = Adam(learning_rate=lr_schedule
…
