…
xecution":{"iopub.status.busy":"2024-08-26T19:04:59.755778Z","iopub.execute_input":"2024-08-26T19:04:59.756053Z","iopub.status.idle":"2024-08-26T19:05:00.08746Z","shell.execute_reply.started":"2024-08-26T19:04:59.75603Z","shell.execute_reply":"2024-08-26T19:05:00.086592Z"},"trusted":true},"execution_count":26,"outputs":[{"name":"stdout","text":"Model: \"sequential\"\n_________________________________________________________________\n Layer (type)                Output Shape              Param #   \n=================================================================\n conv2d (Conv2D)             (None, 997, 63, 16)       160       \n                                                                 \n conv2d_1 (Conv2D)           (None, 995, 61, 16)       2320      \n                                                                 \n flatten (Flatten)           (None, 971120)            0         \n                                                                 \n dense (Dense)               (None, 128)               124303488 \n                                                                 \n dense_1 (Dense)             (None, 1)                 129       \n                                                                 \n=================================================================\nTotal params: 124306097 (474.19 MB)\nTrainable params: 124306097 (474.19 MB)\nNon-trainable params: 0 (0.00 Byte)\n_________________________________________________________________\n","output_type":"stream"}]},{"cell_type":"code","source":"tf.keras.utils.pl
…
ution":{"iopub.status.busy":"2024-08-26T19:13:51.368871Z","iopub.execute_input":"2024-08-26T19:13:51.369284Z","iopub.status.idle":"2024-08-26T19:13:51.55736Z","shell.execute_reply.started":"2024-08-26T19:13:51.369252Z","shell.execute_reply":"2024-08-26T19:13:51.555097Z"},"trusted":true},"execution_count":44,"outputs":[{"name":"stdout","text":"Model: \"sequential_2\"\n_________________________________________________________________\n Layer (type)                Output Shape              Param #   \n=================================================================\n conv2d_2 (Conv2D)           (None, 997, 63, 64)       640       \n                                                                 \n batch_normalization (Batch  (None, 997, 63, 64)       256       \n Normalization)                                                  \n                                                                 \n max_pooling2d (MaxPooling2  (None, 498, 31, 64)       0         \n D)                                                              \n                                                                 \n dropout (Dropout)           (None, 498, 31, 64)       0         \n                                                                 \n conv2d_3 (Conv2D)           (None, 496, 29, 32)       18464     \n                                                                 \n batch_normalization_1 (Bat  (None, 496, 29, 32)       128       \n chNormalization)                                                \n                                                                 \n max_pooling2d_1 (MaxPoolin  (None, 248, 14, 32)       0         \n g2D)                                                            \n                                                                 \n dropout_1 (Dropout)         (None, 248, 14, 32)       0         \n                                                                 \n flatten_2 (Flatten)         (None, 111104)            0         \n                                                                 \n dense_5 (Dense)             (None, 64)                7110720   \n                                                                 \n dropout_2 (Dropout)         (None, 64)                0         \n                                                                 \n dense_6 (Dense)             (None, 32)                2080      \n                                                                 \n dropout_3 (Dropout)         (None, 32)                0         \n                                                                 \n dense_7 (Dense)             (None, 16)                528       \n                                                                 \n dropout_4 (Dropout)         (None, 16)                0         \n                                                                 \n dense_8 (Dense)             (None, 1)                 17        \n                                                                 \n=================================================================\nTotal params: 7132833 (27.21 MB)\nTrainable params: 7132641 (27.21 MB)\nNon-trainable params: 192 (768.00 Byte)\n_________________________________________________________________\n","output_type":"stream"}]},{"cell_type":"code","source":"tf.keras.utils.plo
…
